model/1000.pt (torch, 443023 bytes, 24 tensors)

unet_model.encoder.0.0.main.weight f4 [16, 2, 3, 3]
-0.062214285 0.49708143 0.2269533 -0.7810496 -0.83177334 0.23387145 -0.45385787 0.088862
-0.016495211 0.077454634 -0.10492866 0.04197794 0.35359162 -0.0298555 -0.09962141 0.0532104
-0.010235886 -0.0008077612 -0.22002353 0.18074836 0.09334777 -0.30315986 0.033021968 0.24101517
-0.1882531 -0.15074366 0.07867399 0.27759156 0.2404807 -0.18831748 0.009819842 0.45433494
-0.09828274 -0.011007316 0.23463443 0.105310425 -0.24469616 0.16480312 0.075404085 0.07070261
0.52718556 0.17176662 0.16069785 0.15242364 -0.1888538 0.2150831 0.18568009 -0.044335593
0.3888854 0.08899898 -0.36093843 -0.1052874 -0.38342893 -0.15065938 0.00064116553 -0.03665781
-0.43167403 -0.12463508 0.57786506 0.36026138 0.03994487 -0.19781817 0.15337916 -0.270261
-0.65024894 -0.90574014 -0.019356987 -0.18949722 -0.9244413 0.05114105 0.022727732 -0.36379057
0.029319765 -0.068277836 0.037284534 -0.27479634 0.049164303 0.25681415 -0.060174044 0.20426275
0.13106889 0.17939863 0.07415671 0.0011479787 -0.22225434 -0.9711269 0.093024164 -0.08964343
-0.16894367 -0.010652905 -0.052514058 -0.48707324 -0.010753635 0.28744927 -0.45931238 0.027999315
0.05132619 0.28470364 0.24699152 0.007834925 -0.16853146 0.07999312 -0.08311468 -0.5614198
-0.16138104 0.12646675 0.17016219 0.17938536 -0.09461789 -0.27557138 -0.28902122 0.537924
0.21341059 -0.2011696 -0.021874474 0.25642225 -0.19675575 0.033487923 -0.018206593 -0.17647514
0.4381467 0.11546818 -0.22997624 -0.15647 0.26912326 -0.19465436 0.4329467 0.16533774
-0.044370994 0.936254 -0.90427417 0.08948859 -0.20557038 -0.36659062 -0.2894497 -0.13131921
0.034183014 -0.017787835 0.30714333 -0.05107861 0.029024672 -0.06565214 -0.044947196 0.04025924
0.04298931 -0.054614335 0.06434981 0.19235326 0.27988717 -0.10146973 0.11295931 0.0668137
-0.24617988 -0.07707518 0.017894149 0.08778805 -0.09584762 -0.56700677 -0.2569555 0.043623514
-0.5400197 0.016437422 -0.026889222 0.015363546 -0.051202793 0.43455175 0.32716686 -0.014553608
0.22582056 0.25340685 -0.029058732 -0.13135782 -0.0016506073 0.01089756 -0.13898656 -0.19366023
0.06268377 0.13854034 0.19216971 -0.034330357 0.21017809 -0.5750422 -0.26432118 0.22725306
-0.34596378 0.56678987 0.104530476 0.20868692 -0.09962549 -0.16724846 0.38660797 0.27525872
-0.29614872 0.46159288 -0.4676032 -0.011438323 -0.18537311 0.074526384 -0.11513873 -0.17624082
-0.27434993 0.4368595 0.10707991 -0.7938584 0.07376747 0.63665605 0.029818032 -0.023087764
0.03605041 -0.0067547043 -0.06642677 0.16583703 0.43386593 -0.19724612 -0.41151568 0.11978812
-0.17341363 -0.14151706 -0.30696318 -0.056579664 0.34790593 -0.35143018 0.5189707 0.52252173
-0.11578312 -0.2832933 0.12407032 -0.16638151 0.22331323 0.0059976745 -0.06608098 -0.039450895
0.30824408 0.0032391518 0.16690448 -0.15308233 -0.065485135 -0.10690832 -0.3700777 0.09743419
-0.038562965 0.08732166 0.11454383 0.43187726 0.48421457 -0.2959637 0.42729744 -0.08356456
-0.026693534 -0.123960935 -0.17774045 -0.18184307 0.069956854 -0.010159259 -0.0729201 0.23881586
00000000: 68d4 7ebd 7581 fe3e 7266 683e def2 47bf
00000010: 19ef 54bf ff7b 6f3e 0f60 e8be 48fd b53d
00000020: f720 87bc 89a0 9e3d d6e4 d6bd 0ff1 2b3d
00000030: f609 b53e 8693 f4bc 4f06 ccbd 26f3 593d
00000040: 6bb4 27bc f0bf 53ba d94d 61be 1916 393e
00000050: 1e2d bf3d c537 9bbe 0b42 073d aecc 763e
00000060: 6cc5 40be 8c5c 1abe d41f a13d 7b20 8e3e
00000070: 9340 763e 4cd6 40be 67e3 203c 979e e83e
00000080: 7648 c9bd 0858 34bc 0244 703e feac d73d
00000090: a191 7abe 26c2 283e 756d 9a3d 88cc 903d
000000a0: a2f5 063f 97e3 2f3e fa8d 243e f114 1c3e
000000b0: e462 41be bf3e 5c3e ec22 3e3e 3d99 35bd
000000c0: fd1b c73e 1945 b63d eccc b8be eca0 d7bd
000000d0: cc50 c4be 7446 1abe e413 283a 8026 16bd
000000e0: 6104 ddbe ad40 ffbd f7ee 133f 2e74 b83e
000000f0: 3b9d 233d d990 4abe 6d0f 1d3e a65f 8abe
00000100: b776 26bf 96de 67bf 8b92 9ebc 8f0b 42be
00000110: 2fa8 6cbf 4779 513d 822f ba3c c242 babe
00000120: 0130 f03c 40d5 8bbd abb7 183d 1bb2 8cbe
00000130: 8260 493d 257d 833e 0f79 76bd 412a 513e
00000140: ec36 063e 46b4 373e 79df 973d c677 963a
00000150: a496 63be c69b 78bf 7483 be3d fa96 b7bd
00000160: 92ff 2cbe 8689 2ebc fb18 57bd aa61 f9be
00000170: 0430 30bc 8d2c 933e fe2a ebbe d25e e53c
00000180: 693b 523d adc4 913e 58eb 7c3e 0f5e 003c
00000190: 8393 2cbe 6fd3 a33d 0838 aabd 35b9 0fbf
000001a0: 1241 25be 8080 013e ff3e 2e3e ccb0 373e
000001b0: 06c7 c1bd b117 8dbe 97fa 93be 63b5 093f
000001c0: 4e88 5a3e 67ff 4dbe 1932 b3bc c749 833e
000001d0: 577a 49be a22a 093d fe25 95bc e6b5 34be
000001e0: c454 e03e 957a ec3d e47e 6bbe ac39 20be
000001f0: 86ca 893e 7953 47be 31ab dd3e 4c4e 293e
00000200: 5cbe 35bd 58ae 6f3f 837e 67bf cb45 b73d
00000210: 0b81 52be c4b1 bbbe c032 94be 8b78 06be
00000220: 7d03 0c3d cbb7 91bc e441 9d3e ce37 51bd
00000230: 26c5 ed3c a174 86bd 8d1a 38bd dfe6 243d
00000240: 8f15 303d 48b3 5fbd d5c9 833d 41f8 443e
00000250: 5f4d 8f3e 5dcf cfbd 3657 e73d 9fd5 883d
00000260: 9416 7cbe 98d9 9dbd c096 923c 39ca b33d
00000270: c24b c4bd 5b27 11bf ac8f 83be 92ae 323d
00000280: bb3e 0abf c6a7 863c c946 dcbc 62b7 7b3c
00000290: 05ba 51bd 917d de3e 6a82 a73e 4272 6ebc
000002a0: 813d 673e 8bbe 813e 940c eebc aa82 06be
000002b0: 3159 d8ba ae8b 323c 7e52 0ebe de4e 46be
000002c0: 5960 803d 85dd 0d3e 23c8 443e fd9d 0cbd
000002d0: ed38 573e f735 13bf 1b55 87be 07b5 683e
000002e0: 2a22 b1be 2419 113f 1314 d63d 06b2 553e
000002f0: 7308 ccbd 2e43 2bbe 7bf1 c53e b6ee 8c3e
00000300: cea0 97be e755 ec3e b069 efbe ce67 3bbc
00000310: 73d2 3dbe 4aa1 983d dbcd ebbd 7978 34be
00000320: 9877 8cbe 0cac df3e b64c db3d 4e3a 4bbf
00000330: 6613 973d e4fb 223f f244 f43c 8d22 bdbc
00000340: 98a9 133d 9156 ddbb c20a 88bd 2fd1 293e
00000350: ad23 de3e e3fa 49be 2fb2 d2be 7953 f53d
00000360: 5893 31be d9e9 10be 472a 9dbe 14c0 67bd
00000370: ba20 b23e a8ee b3be 44db 043f fcc3 053f
00000380: b31f edbd d20b 91be 9418 fe3d ea5f 2abe
00000390: 39ac 643e 2488 c43b 7755 87bd 4397 21bd
000003a0: 2bd2 9d3e f347 543b 02e9 2a3e 9dc1 1cbe
000003b0: 121d 86bd c0f2 dabd d37a bdbe 948b c73d
000003c0: 33f4 1dbd b3d5 b23d f595 ea3d 041f dd3e
000003d0: f9ea f73e 8e88 97be bbc6 da3e e523 abbd
000003e0: 66ac dabc 3bdf fdbd 9801 36be 1235 3abe
000003f0: 8a45 8f3d 0573 26bc 2257 95bd 258c 743e

unet_model.encoder.0.0.main.bias f4 [16]
0.13402076 -0.025916958 -0.012573414 0.042479362 0.1334586 0.09471925 0.030321985 0.036896307
0.17531714 -0.048149124 0.040178314 0.038630206 -0.16055438 0.033267416 -0.06971218 0.081817
00000000: bd3c 093e cd4f d4bc b800 4ebc d7fe 2d3d
00000010: 5fa9 083e 2bfc c13d d065 f83c 9520 173d
00000020: 5686 333e 0438 45bd 0492 243d b53a 1e3d
00000030: 5e68 24be 6a43 083d 42c5 8ebd ac8f a73d

unet_model.encoder.1.0.main.weight f4 [32, 16, 3, 3]
-0.07614612 0.14888619 -0.27064168 -0.06617327 -0.049380973 -0.09172775 -0.09282172 -0.15508315
-0.13337147 0.06766803 0.2150672 0.12365187 0.01186588 0.47644433 0.21474889 -0.062093537
0.23932102 0.0062628677 0.055719372 0.034988586 0.13152112 -0.0011607765 -0.12997928 0.40836236
0.071765445 0.12143314 -0.050038945 0.11377458 -0.09756048 -0.13596697 0.44810444 -0.054688677
-0.14416619 0.18484117 0.16402295 -0.11328141 -0.016234366 -0.101877496 -0.4663059 -0.05239534
-0.081306174 -0.053945497 0.01570317 -0.0760846 -0.12943427 0.050476197 0.14088579 0.08071065
-0.07379509 0.12542455 -0.1165126 -0.06132072 0.11624124 0.07195281 0.057302263 0.030636894
0.08097667 0.30645123 -0.021397935 0.036961194 -0.09467412 0.05555186 0.049025137 -0.06165701
-0.032611944 0.21628699 0.055096883 -0.24364056 -0.015005115 -0.0006024406 -0.036146574 0.08103043
0.16199045 -0.14493701 0.28788543 0.06841971 0.047684915 0.38445842 -0.032997023 0.07977249
0.04237582 0.032325238 -0.09331746 -0.042838357 -0.021016663 -0.003975725 -0.15445782 -0.037460048
0.015889363 0.02931399 0.013199242 -0.19838749 0.005528221 -0.22245374 0.23718694 0.047718015
-0.14600177 -0.055577256 0.03210455 -0.13687986 -0.14130567 0.16244164 -0.21848975 -0.064992376
0.0659463 -0.017537387 -0.07967122 0.042277813 -0.2567159 -0.25835982 -0.054832924 -0.15375046
-0.19754772 -0.30457053 -0.029395537 -0.11693042 -0.22319359 -0.0029394275 -0.23517872 -0.008118813
0.015015295 -0.15989813 0.12807049 -0.03381756 0.02354649 -0.20722508 -0.06670013 0.009180936
-0.2461664 -0.1926691 -0.04366741 -0.3094994 -0.054997314 0.020720556 -0.08692371 -0.08251975
0.2420417 0.08129434 0.022962226 0.27968445 -0.15164821 0.02719935 0.032478586 0.011954999
-0.022245552 -0.1827984 0.048120327 -0.16541684 -0.08726502 0.09323364 0.004173101 -0.00189718
-0.08334038 0.073166326 0.01190402 -0.07465718 -0.048176717 0.06446026 -0.13593309 -0.06320089
-0.02384635 -0.10462976 0.0036585284 -0.03181377 -0.20680064 0.042517703 0.049810503 -0.1541494
-0.059050553 -0.08077055 -0.13832772 -0.06414 0.04282763 0.26364887 -0.18752964 -0.28059703
0.14536831 0.10907315 0.12250634 0.29501784 -0.001651206 -0.07749399 0.0463208 0.02189731
-0.24100272 0.27155206 0.07007533 0.050120644 0.16699725 0.048308905 -0.097465485 -0.026646707
0.015742892 -0.3039246 0.24613814 -0.14976467 0.24413379 -0.004233647 -0.10491031 0.094239905
0.1307537 -0.028020732 0.17752081 0.10744747 0.0028572252 0.059109434 -0.02835345 0.07274761
-0.10611546 0.033870902 -0.0207746 0.25003386 -0.048642557 -0.017087754 -0.1571237 -0.071159035
0.095445275 -0.17895298 0.14332801 -0.09641542 -0.071117386 0.019217668 -0.05202553 0.0071127843
0.14939426 0.10378917 0.108295485 -0.22480826 0.015319039 0.2078776 -0.27108318 0.014581254
-0.14987941 -0.07547236 -0.0038919782 -0.0060545104 -0.18162517 -0.017675929 0.18767926 -0.1506412
0.04355951 -0.13258298 -0.07400528 0.082473144 0.10457354 -0.15876183 0.08594757 0.030399155
-0.11234104 0.021417953 -0.054009005 -0.03849723 -0.12106784 -0.10022838 0.13971914 -0.10944555
00000000: 7ff2 9bbd 9f75 183e 8c91 8abe da85 87bd
00000010: b443 4abd c2db bbbd 5019 bebd 1ece 1ebe
00000020: 8892 08be 8995 8a3d 933a 5c3e 313d fd3d
00000030: 1c69 423c 83f0 f33e 22e7 5b3e cb55 7ebd
00000040: 9210 753e be38 cd3b ff39 643d 3150 0f3d
00000050: 79ad 063e 3225 98ba 4a19 05be df14 d13e
00000060: c3f9 923d f0b1 f83d a3f5 4cbd a602 e93d
00000070: cacd c7bd ed3a 0bbe f26d e53e 3c01 60bd
00000080: 4da0 13be 0147 3d3e a2f5 273e 1500 e8bd
00000090: effd 84bc 26a5 d0bd a6bf eebe 7f9c 56bd
000000a0: da83 a6bd f4f5 5cbd efa3 803c 3ed2 9bbd
000000b0: 6b8a 04be 21c0 4e3d 5d44 103e a04b a53d
000000c0: e121 97bd 4b6f 003e 289e eebd 6f2b 7bbd
000000d0: e30f ee3d ff5b 933d c7b5 6a3d 39fa fa3c
000000e0: 19d7 a53d 2de7 9c3e b94a afbc 9f64 173d
000000f0: 81e4 c1bd 598a 633d 95ce 483d 108c 7cbd
00000100: 1a94 05bd 567a 5d3e 45ad 613d e97c 79be
00000110: 04d8 75bc 1bed 1dba 6e0e 14bd 48f3 a53d
00000120: d3e0 253e 5e6a 14be b865 933e a21f 8c3d
00000130: 4251 433d bcd7 c43e e327 07bd c25f a33d
00000140: 4592 2d3d 7867 043d 391d bfbd 4677 2fbd
00000150: 232b acbc cc46 82bb 312a 1ebe b56f 19bd
00000160: 692a 823c e523 f03c a241 583c 1726 4bbe
00000170: 1426 b53b eaca 63be 22e1 723e f773 433d
00000180: 7d81 15be faa4 63bd 1080 033d 3c2a 0cbe
00000190: 6fb2 10be 1a57 263e c7bb 5fbe b91a 85bd
000001a0: db0e 873d 91aa 8fbc aa2a a3bd 802b 2d3d
000001b0: 4470 83be bd47 84be 7d98 60bd c370 1dbe
000001c0: f349 4abe abf0 9bbe e9ce f0bc 3779 efbd
000001d0: dc8c 64be 69a3 40bb b1d2 70be c504 05bc
000001e0: b602 763c 56bc 23be e924 033e 4884 0abd
000001f0: 92e4 c03c d032 54be 149a 88bd a36b 163c
00000200: 0b13 7cbe 0c4b 45be 99dc 32bd b576 9ebe
00000210: dd44 61bd 28be a93c 0f05 b2bd 1d00 a9bd
00000220: c8d9 773e a67d a63d 471b bc3c cd32 8f3e
00000230: ab49 1bbe 2cd1 de3c 4408 053d e6de 433c
00000240: 4e3c b6bc 812f 3bbe d219 453d 0863 29be
00000250: 01b8 b2bd 47f1 be3d 82be 883b ccaa f8ba
00000260: 5cae aabd 3ad8 953d 1409 433c dde5 98bd
00000270: f354 45bd be03 843d 0b32 0bbe 786f 81bd
00000280: 6c59 c3bc 2148 d6bd ecc3 6f3b 284f 02bd
00000290: 8cc3 53be 0b27 2e3d 1906 4c3d 57d9 1dbe
000002a0: fede 71bd 086b a5bd c8a5 0dbe d55b 83bd
000002b0: 066c 2f3d fcfc 863e c507 40be 6aaa 8fbe
000002c0: 6edb 143e be61 df3d 9be4 fa3d 940c 973e
000002d0: 486d d8ba 2bb5 9ebd e1ba 3d3d fd61 b33c
000002e0: 6bc9 76be df08 8b3e a883 8f3d 4e4b 4d3d
000002f0: 5401 2b3e 8fdf 453d fc9b c7bd 324a dabc
00000300: 3df7 803c 019c 9bbe a30b 7c3e e95b 19be
00000310: 35fe 793e 68ba 8abb 37db d6bd da00 c13d
00000320: 4ce4 053e bc8b e5bc 04c8 353e 6b0d dc3d
00000330: 4940 3b3b bc1c 723d 7f45 e8bc b3fc 943d
00000340: 1053 d9bd 37bc 0a3d 7e2f aabc 7004 803e
00000350: 6b3d 47bd 9efb 8bbc 09e5 20be d4bb 91bd
00000360: d078 c33d 733f 37be 94c4 123e 7375 c5bd
00000370: fea5 91bd 5f6e 9d3c b918 55bd 5c12 e93b
00000380: cffa 183e 6b8f d43d 06ca dd3d 2334 66be
00000390: b5fc 7a3c dedd 543e 6acb 8abe 36e6 6e3c
000003a0: fd79 19be 4191 9abd 8f10 7fbb ea64 c6bb
000003b0: f3fb 39be 1ccd 90bc fe2e 403e b041 1abe
000003c0: 756b 323d d5c3 07be 1590 97bd aee7 a83d
000003d0: a72a d63d 7692 22be 4805 b03d a607 f93c
000003e0: 0f13 e6bd b474 af3c 8c38 5dbd 45af 1dbd
000003f0: 6af2 f7bd 8944 cdbd 8912 0f3e fd24 e0bd

unet_model.encoder.1.0.main.bias f4 [32]
-0.022159643 0.049550828 0.018132944 0.11840446 0.012857613 0.030084781 0.050776538 0.062110916
-0.070949696 0.037665926 0.06716316 0.0823337 0.015583468 -0.01280348 0.116648704 0.08722707
0.22426808 0.015246234 -0.057116114 0.08069841 0.086878665 0.016407011 -0.02842189 -0.010833021
-0.030369205 0.029782085 0.11528936 0.036171988 0.18925752 0.10912118 0.038961787 0.028019113
00000000: 2488 b5bc cff5 4a3d 8a8b 943c 0a7e f23d
00000010: bda8 523c 5c74 f63c 0ffb 4f3d 0468 7e3d
00000020: 134e 91bd 9647 1a3d d78c 893d 929e a83d
00000030: cd51 7f3c b0c5 51bc 84e5 ee3d 1ba4 b23d
00000040: 88a6 653e 57cb 793c 96f2 69bd 3545 a53d
00000050: 71ed b13d ff67 863c 06d5 e8bc fc7c 31bc
00000060: d7c8 f8bc 8ff9 f33c d41c ec3d 1429 143d
00000070: b9cc 413e ed7a df3d 6596 1f3d 5788 e53c

unet_model.encoder.2.0.main.weight f4 [32, 32, 3, 3]
-0.025670348 0.096442565 -0.017757472 -0.503982 -0.6353248 -0.08112075 0.11764467 -0.09221958
0.115494 0.21412309 -0.24661432 -0.13781667 0.031119885 0.0081460625 0.0138479 0.021392684
0.01954451 0.0546371 0.11057028 -0.23465475 -0.028993987 0.142695 0.1534091 -0.11808183
-0.0066609075 -0.10217345 -0.09030184 -0.30918035 -0.11865435 0.10965809 0.0678952 0.12858276
0.038259998 0.10637667 -0.02512221 0.035742596 -0.035796344 -0.06743987 -0.07735947 0.045779165
-0.3677046 -0.41889116 0.078700714 -0.091431 -0.07846575 0.015349595 0.106843784 0.11138288
-0.2584677 0.23830055 0.0054214406 0.117426164 0.35776573 0.05864073 -0.090061806 0.06497692
0.048628394 -0.23391253 -0.29361492 -0.02881976 -0.052248273 0.009017112 0.044556037 0.22806478
-0.08969983 -0.060867682 0.30772415 -0.12032224 -0.013736356 -0.08681155 0.02962606 -0.122790486
0.15188807 0.07505957 -0.08776555 0.013937009 -0.46151796 -0.010884312 0.14462337 0.077402525
0.03280499 -0.119192824 -0.08428126 -0.023821516 0.15853001 -0.32068732 -0.35660025 -0.07760922
-0.19632718 -0.08208218 0.032100484 -0.030834895 0.033933595 -0.10063903 -0.029533707 -0.0010634676
-0.07313095 0.04750973 0.19363436 0.13529238 0.18356597 0.06451094 -0.08598855 0.1903107
-0.012725213 0.15017778 0.08679413 0.03206572 -0.26252833 -0.0656665 -0.1509892 -0.3402074
-0.053905856 0.038252883 -0.008954914 -0.21660167 -0.08046281 -0.024619346 -0.04422553 -0.13487308
0.312721 -0.11136616 -0.19384828 0.13737333 0.119267285 0.07092651 0.09709612 0.062082916
-0.14025804 0.07572142 -0.024910133 -0.17569774 -0.12541646 -0.030379055 -0.009522403 0.14007093
-0.30805144 0.022457037 -0.24135722 -0.5521356 -0.30344105 -0.21122417 -0.1605811 -0.008163371
0.05712034 -0.057995997 0.29987198 0.108644165 -0.19887777 -0.152494 -0.0009417482 0.122790836
0.24206205 0.17377311 -0.023384763 0.02830621 0.33764216 0.37034935 0.30461985 0.06101381
0.07461304 -0.13645206 0.038843673 -0.28107274 0.08507521 -0.38729596 -0.35997826 -0.26105493
-0.06233692 -0.020789878 0.052244548 -0.14752033 0.15052658 -0.12721401 0.26083523 -0.09801932
0.08928512 -0.11379848 0.09983345 0.1797303 -0.19330895 0.048608985 0.006300166 0.0617108
0.27593362 0.13096891 0.08742146 0.101253495 0.080396354 0.12142526 -0.010781073 0.17345977
-0.3858619 -0.09752576 0.045261342 -0.016254613 0.24265236 -0.12077756 0.22115016 0.19324471
0.13512261 -0.16258962 0.084372535 -0.21680495 0.16735442 -0.14868237 0.052283566 -0.084049836
0.16087803 -0.23198128 0.0014643233 -0.054955326 -0.013484507 -0.00054929685 0.26103052 -0.01245605
-0.21747395 -0.098770835 0.19190024 0.08763989 -0.08747032 -0.15147682 -0.04730108 -0.010845305
0.23037925 -0.098865226 0.04464582 -0.06113327 -0.023091774 0.43537048 0.020880764 0.030563412
0.36430326 -0.028102547 -0.13189404 0.1971202 0.18751146 0.13220082 -0.2276723 0.34591478
0.07735339 -0.14755858 -0.10390809 0.21920553 -0.073236644 0.13346261 -0.09522545 0.0759122
0.012465461 -0.07111235 0.034650028 0.023208011 -0.115176655 0.20408423 0.0966598 -0.039092157
00000000: 9f4a d2bc ae83 c53d 1e78 91bc f704 01bf
00000010: a5a4 22bf a322 a6bd b0ef f03d 9fdd bcbd
00000020: 1e88 ec3d 1543 5b3e 7788 7cbe d01f 0dbe
00000030: 21ef fe3c 1077 053c 4de2 623c b63f af3c
00000040: cf1b a03c 27cb 5f3d ac72 e23d 5649 70be
00000050: cc84 edbc a31e 123e 4617 1d3e e3d4 f1bd
00000060: be43 dabb 5040 d1bd 2cf0 b8bd e34c 9ebe
00000070: 0d01 f3bd 6c94 e03d a30c 8b3d 33ab 033e
00000080: 84b6 1c3d 03dc d93d 18cd cdbc d466 123d
00000090: 309f 12bd ea1d 8abd a46e 9ebd ef82 3b3d
000000a0: c743 bcbe e778 d6be d72d a13d 2d40 bbbd
000000b0: a7b2 a0bd de7c 7b3c ead0 da3d b51c e43d
000000c0: e155 84be 0f05 743e 57a6 b13b 217d f03d
000000d0: 122d b73e 4331 703d 5372 b8bd 9f12 853d
000000e0: 912e 473d c486 6fbe b254 96be 6b17 ecbc
000000f0: 4902 56bd 82bc 133c 6480 363d d089 693e
00000100: 8bb4 b7bd 6450 79bd 058e 9d3e 826b f6bd
00000110: 740e 61bc 41ca b1bd 5ab2 f23c 9479 fbbd
00000120: 8c88 1b3e d5b8 993d 6dbe b3bd 0d58 643c
00000130: 154c ecbe 1d54 32bc 2618 143e 3785 9e3d
00000140: 865e 063d 5e1b f4bd a79b acbd 5725 c3bc
00000150: b155 223e 2131 a4be 4f94 b6be 95f1 9ebd
00000160: fe09 49be b41a a8bd cc7b 033d 7699 fcbc
00000170: f4fd 0a3d d61b cebd acf0 f1bc 0d64 8bba
00000180: aec5 95bd 9099 423d 1648 463e 168a 0a3e
00000190: b8f8 3b3e 501e 843d c41a b0bd cfe0 423e
000001a0: 697d 50bc 34c8 193e 1fc1 b13d 5857 033d
000001b0: 1d6a 86be 287c 86bd ea9c 1abe aa2f aebe
000001c0: 63cc 5cbd 0eaf 1c3d a2b7 12bc d4cc 5dbe
000001d0: b0c9 a4bd 83ae c9bc d425 35bd 2b1c 0abe
000001e0: f81c a03e f113 e4bd 2a80 46be 98ab 0c3e
000001f0: 6842 f43d eb41 913d 55da c63d a84a 7e3d
00000200: ce9f 0fbe d513 9b3d 5610 ccbc 1cea 33be
00000210: 2c6d 00be 7fdd f8bc da03 1cbc c16e 0f3e
00000220: ebb8 9dbe d2f7 b73c 5926 77be c258 0dbf
00000230: a05c 9bbe 264b 58be 5f6f 24be a9bf 05bc
00000240: 05f7 693d 368d 6dbd d288 993e d580 de3d
00000250: 9da6 4bbe 6327 1cbe a7df 76ba c379 fb3d
00000260: 1ddf 773e 94f1 313e 6791 bfbc 6de2 e73c
00000270: 6fdf ac3e 6e9e bd3e 22f7 9b3e 9ee9 793d
00000280: b9ce 983d 17ba 0bbe 8b1a 1f3d c4e8 8fbe
00000290: e93b ae3d a84b c6be 124f b8be fea8 85be
000002a0: 0055 7fbd 894f aabc 61fe 553d 920f 17be
000002b0: a423 1a3e 6444 02be 328c 853e 5abe c8bd
000002c0: 1edb b63d 2d0f e9bd 7b75 cc3d 380b 383e
000002d0: c8f2 45be 371a 473d 9f71 ce3b 77c4 7c3d
000002e0: 2c47 8d3e b71c 063e 060a b33d fe5d cf3d
000002f0: d8a6 a43d cfad f83d 19a3 30bc 709f 313e
00000300: b18f c5be 96bb c7bd f563 393d 6528 85bc
00000310: dc79 783e 3a5a f7bd 3075 623e f1e1 453e
00000320: 955d 0a3e e57d 26be 82cb ac3d 1e02 5ebe
00000330: f55e 2b3e 3140 18be 4b27 563d 5222 acbd
00000340: 36bd 243e 808c 6dbe 89ee bf3a d618 61bd
00000350: 1fee 5cbc b0fe 0fba cba5 853e 7614 4cbc
00000360: 7eb1 5ebe 5d48 cabd 7f81 443e 8b7c b33d
00000370: a423 b3bd bd1c 1bbe c7be 41bd 82b0 31bc
00000380: 8ae8 6b3e da79 cabd 89de 363d e166 7abd
00000390: f62a bdbc e1e8 de3e 230e ab3c 1f60 fa3c
000003a0: f585 ba3e 5037 e6bc 3b0f 07be e1d9 493e
000003b0: 0103 403e a75f 073e ed22 69be be1b b13e
000003c0: 746b 9e3d 9919 17be c4cd d4bd 6a77 603e
000003d0: 18fd 95bd 6caa 083e 9005 c3bd db77 9b3d
000003e0: ef3b 4c3c 5aa3 91bd 30ed 0d3d ba1e be3c
000003f0: bde1 ebbd 75fb 503e 93f5 c53d 191f 20bd

unet_model.encoder.2.0.main.bias f4 [32]
0.045189258 -0.043321565 -0.17957333 0.0153788915 0.09740241 0.041609127 -0.04353109 -0.007402828
0.18437172 0.06744225 -0.07761867 0.1715624 0.029867096 -0.002315923 -0.012939148 0.030581655
0.08544923 0.20466502 0.23413786 -0.20568085 -0.07673661 0.14700046 -0.0071294536 -0.13257688
0.15150581 0.16027631 0.17697293 0.08883934 0.028556213 0.2010962 0.06404043 -0.05489855
00000000: 5f18 393d f471 31bd 12e2 37be bff7 7b3c
00000010: ea7a c73d 556e 2a3d a84d 32bd 6c93 f2bb
00000020: f1cb 3c3e 2a1f 8a3d 8af6 9ebd 0eae 2f3e
00000030: d7ab f43c bec6 17bb b8fe 53bc 6186 fa3c
00000040: 0200 af3d b593 513e d6c1 6f3e 009e 52be
00000050: 1528 9dbd 4a87 163e 319e e9bb 3cc2 07be
00000060: 5724 1b3e 791f 243e 6438 353e 66f1 b53d
00000070: b8ee e93c 2aec 4d3e a127 833d 4ddd 60bd

unet_model.encoder.3.0.main.weight f4 [32, 32, 3, 3]
0.1665299 4.7658996e-05 0.29493243 0.06081462 -0.0411617 0.07310853 -0.10004854 -0.12841597
-0.26877645 0.0067865783 -0.14398032 -0.15854901 0.1185332 0.20532249 -0.15278378 0.028504299
-0.17532592 -0.51510644 0.12604274 -0.018116578 0.06874328 -0.17581233 -0.018376393 0.3217938
0.23383735 -0.1879396 -0.16694924 0.16063446 0.004716542 0.13980554 0.010639284 -0.028556563
-0.2916392 -0.13133138 -0.1574638 -0.15029925 -0.062419605 -0.066872604 0.38184902 0.057877477
0.03418861 0.33866793 -0.030232154 -0.37597626 -0.099726066 -0.2911805 -0.105272755 -0.12774205
0.094287395 -0.07557344 -0.19520049 0.0107733095 -0.037858497 0.39032814 0.00907371 -0.13912804
-0.3775851 0.12946121 0.11053884 -0.024286628 0.27522084 -0.1875476 -0.06630245 -0.036716674
0.004304059 0.0463969 -0.028681122 0.113039955 -0.28002715 -0.24332318 -0.074704155 -0.09170786
-0.0033819664 0.2593306 0.31690413 -0.14645182 0.06271588 0.07825185 0.22428742 -0.1493471
0.056370586 -0.009072128 0.1207536 0.015004685 -0.21533984 0.07794151 -0.065646365 0.1512336
0.23064965 0.0775081 -0.1415476 0.016164614 -0.1196957 -8.932093e-05 0.18820092 -0.24501403
-0.17324394 0.22930461 0.19829562 0.27477303 0.16451669 0.009785282 -0.2967154 -0.21783973
0.04110814 -0.13224588 -0.2716961 0.08977999 -0.019995252 -0.43998167 0.15575945 0.18695387
-0.043275636 -0.041097157 -0.03921526 -0.043771867 0.19546486 -0.11539923 -0.35246652 0.25404364
0.1465168 -0.11096405 -0.063525856 0.09252602 -0.37221712 0.21985614 0.12473638 -0.15231076
-0.21737042 -0.089465186 -0.2184052 0.07334327 -0.24664913 -0.26276842 0.31912383 -0.26365125
0.03464245 -0.049416978 0.27168408 -0.06493633 -0.12670366 -0.013427972 0.048993815 0.0076963333
-0.24395427 -0.18423288 0.1904788 0.26627254 0.08497955 0.0019579593 -0.04192535 -0.0638822
-0.2703038 0.1470774 0.0026733128 0.2426463 0.19175826 -0.28716645 0.106770255 -0.07747326
-0.094186604 0.1620339 -0.16662984 -0.19502425 -0.08719603 0.073750526 0.24254797 0.016529053
0.035771515 -0.019196775 -0.08439973 -0.2233123 -0.07106434 -0.42814028 0.112632155 -0.051267568
-0.23299533 -0.025064047 0.078913935 -0.32693982 -0.58162916 -0.37682936 -0.3718578 0.3082515
-0.03091481 0.25756252 0.13304506 0.16905645 -0.075255774 -0.35329902 -0.09829819 0.14389464
-0.14571685 0.018177655 0.19200289 0.20115909 0.17913139 -0.042699113 0.08331013 -0.32325718
0.13564949 -0.04186852 -0.32085252 -0.054898266 0.15149686 0.19481759 -0.21055537 -0.077082604
-0.21060513 0.11700036 -0.29941598 0.053531412 -0.025015734 0.09670221 -0.13477641 -0.12455195
0.1741945 0.36908168 -0.17681803 0.13296728 -0.33302385 0.006366539 0.062823005 -0.12382907
-0.053003095 -0.007786219 -0.055339627 -0.019392086 0.238307 -0.10730146 0.16806503 0.011046489
-0.12868711 -0.034537137 0.078185 0.29922843 -0.075477384 0.10137715 0.23783071 0.1500135
-0.04847269 -0.37452605 -0.20637289 -0.024158878 0.19052082 -0.13017735 0.0296484 -0.17471136
0.21880452 -0.42394456 -0.10334701 0.13473943 0.0378331 -0.27377346 0.10027955 0.20969692
00000000: d086 2a3e 75e5 4738 6201 973e c018 793d
00000010: 2c99 28bd edb9 953d 40e6 ccbd 7a7f 03be
00000020: 119d 89be f261 de3b 946f 13be ac5a 22be
00000030: 89c1 f23d 0f40 523e 5a73 1cbe d981 e93c
00000040: a388 33be 04de 03bf 5911 013e 3869 94bc
00000050: 47c9 8c3d 2608 34be 178a 96bc 28c2 a43e
00000060: 0f73 6f3e 3d73 40be bef4 2abe 5c7d 243e
00000070: 398d 9a3b 2f29 0f3e 6450 2e3c 74ef e9bc
00000080: bc51 95be bc7b 06be 313e 21be 0ce8 19be
00000090: b3ab 7fbd 81f4 88bd b781 c33e ef10 6d3d
000000a0: 5b09 0c3d e265 ad3e 6ca9 f7bc f67f c0be
000000b0: 2e3d ccbd 9c15 95be 3e99 d7bd d0ce 02be
000000c0: c019 c13d 3fc6 9abd a3e2 47be 8982 303c
000000d0: 8311 1bbd 17d9 c73e e6a9 143c 9577 0ebe
000000e0: d652 c1be 7b91 043e 3062 e23d c0f4 c6bc
000000f0: bfe9 8c3e 7a0c 40be 94c9 87bd 3964 16bd
00000100: 1009 8d3b ad0a 3e3d acf4 eabc 7e81 e73d
00000110: b85f 8fbe b629 79be 7efe 98bd 55d1 bbbd
00000120: fba3 5dbb fbc6 843e 4241 a23e 77f7 15be
00000130: 2f71 803d 8242 a03d 9aab 653e 72ee 18be
00000140: d8e4 663d 43a3 14bc aa4d f73d 36d6 753c
00000150: 0c82 5cbe cc9f 9f3d 9a71 86bd fbdc 1a3e
00000160: 6c2f 6c3e 91bc 9e3d dbf1 10be a76b 843c
00000170: 0523 f5bd cf51 bbb8 beb7 403e f5e4 7abe
00000180: dc66 31be d4ce 6a3e 020e 4b3e 0daf 8c3e
00000190: 1077 283e 7352 203c 15eb 97be 6111 5fbe
000001a0: 0261 283d 776b 07be c01b 8bbe 92de b73d
000001b0: 15cd a3bc 4745 e1be 687f 1f3e d670 3f3e
000001c0: cb41 31bd 7e55 28bd 2ea0 20bd 214a 33bd
000001d0: f127 483e 6e56 ecbd 7e76 b4be 0212 823e
000001e0: 8008 163e 1f41 e3bd d819 82bd 487e bd3d
000001f0: 3e93 bebe f821 613e ca75 ff3d 5af7 1bbe
00000200: 5a96 5ebe 8639 b7bd 9da5 5fbe ff34 963d
00000210: 9791 7cbe 9589 86be 3364 a33e 4cfd 86be
00000220: 3ee5 0d3d 7569 4abd 2d1a 8b3e 57fd 84bd
00000230: 9bbe 01be ff00 5cbc bdad 483d 8631 fc3b
00000240: 26cf 79be 8ba7 3cbe e00c 433e e054 883e
00000250: c209 ae3d 1b51 003b eab9 2bbd acd4 82bd
00000260: 4265 8abe 759b 163e bf32 2f3b 4678 783e
00000270: 475c 443e 7b07 93be 5daa da3d 4daa 9ebd
00000280: e8e4 c0bd 37ec 253e 03a1 2abe 70b4 47be
00000290: d593 b2bd 840a 973d 7f5e 783e f067 873c
000002a0: 2785 123d 8e42 9dbc c4d9 acbd fbab 64be
000002b0: 2e8a 91bd 3435 dbbe b0ab e63d f1fd 51bd
000002c0: 5496 6ebe 1e53 cdbc a19d a13d a864 a7be
000002d0: a6e5 14bf c7ef c0be 2564 bebe 24d3 9d3e
000002e0: 0e41 fdbc 3cdf 833e f73c 083e 221d 2d3e
000002f0: b31f 9abd 9ce3 b4be 9050 c9bd 1e59 133e
00000300: cc36 15be 4ee9 943c 689c 443e a6fc 4d3e
00000310: 386e 373e 44e5 2ebd 809e aa3d f781 a5be
00000320: b3e7 0a3e 537e 2bbd c846 a4be 01dd 60bd
00000330: fe21 1b3e 437e 473e d49b 57be 7cdd 9dbd
00000340: dfa8 57be e29d ef3d 0d4d 99be c143 5b3d
00000350: cced ccbc cf0b c63d d402 0abe 1815 ffbd
00000360: 0b60 323e 46f8 bc3e c90f 35be 9328 083e
00000370: 1a82 aabe 669e d03b 59a9 803d 189a fdbd
00000380: c619 59bd 8a23 ffbb ceab 62bd 27dc 9ebc
00000390: c006 743e dec0 dbbd 3d19 2c3e 55fc 343c
000003a0: 8ec6 03be d076 0dbd 751f a03d 7834 993e
000003b0: e393 9abd d39e cf3d e589 733e 249d 193e
000003c0: 4d8b 46bd e1c1 bfbe 6a53 53be d7e8 c5bc
000003d0: e417 433e 364d 05be 34e1 f23c 89e7 32be
000003e0: 4b0e 603e 430f d9be 99a7 d3bd 22f9 093e
000003f0: e1f6 1a3d 092c 8cbe 5d5f cd3d caba 563e

unet_model.encoder.3.0.main.bias f4 [32]
-0.0362015 -0.15388075 -0.20135938 -0.046226993 -0.054208048 -0.112847865 -0.02399491 -0.26262558
-0.088671915 -0.08155754 -0.14901446 -0.15968402 -0.2811508 -0.07968178 -0.05602018 -0.15409626
-0.059309278 -0.14549454 -0.03432521 -0.04400364 0.016557198 -0.1038355 -0.12387463 -0.04253804
-0.18546163 -0.1370813 -0.05963957 0.037970684 -0.2230019 -0.108774036 -0.16354568 -0.02722189
00000000: 0648 14bd ea92 1dbe 2731 4ebe 8458 3dbd
00000010: 4209 5ebd c81c e7bd f990 c4bc dc76 86be
00000020: 9f99 b5bd a407 a7bd 3f97 18be 3584 23be
00000030: fff2 8fbe 3330 a3bd 6b75 65bd 69cb 1dbe
00000040: 49ee 72bd 85fc 14be 9798 0cbd 293d 34bd
00000050: f6a2 873c b5a7 d4bd fbb1 fdbd 5e3c 2ebd
00000060: a7e9 3dbe 0a5f 0cbe 9f48 74bd 2687 1b3d
00000070: 9c5a 64be ecc4 debd 8578 27be 7100 dfbc

unet_model.decoder.0.0.main.weight f4 [32, 32, 3, 3]
0.3206045 0.111586414 -0.52519035 -0.031930603 -0.16380216 0.0878977 -0.17009012 -0.061738335
0.04739346 0.14635746 -0.015324554 0.112689376 0.08568435 -0.103804626 -0.1492085 -0.02905745
-0.050703797 -0.09441851 -0.8254531 0.04785114 0.25852287 -0.22224368 0.054077398 0.1934271
-0.19309442 -0.058857 0.13459858 0.011816782 -0.17774007 0.17386869 0.14287078 0.019193286
-0.32820472 0.26880446 0.02875634 -0.04838751 -0.074164756 -0.33462542 0.031306498 0.07773691
-0.07851778 -0.5990083 0.2573484 -0.038949188 0.1987457 0.24500388 0.22868821 -0.13079862
0.030858517 0.18687747 0.12568909 0.21051203 -0.20471509 0.16472475 -0.18852729 -0.09633266
0.0511892 -0.0038446905 0.16865987 -0.22977185 -0.19286771 0.08497796 -0.20487675 -0.042636573
-0.056460265 -0.12672746 -0.09305361 -0.14370617 -0.09365646 -0.3289613 0.05668827 0.13236825
-0.0039328393 -0.0071740067 -0.08361357 -0.15455358 -0.14415687 0.2132906 0.15415303 -0.08639061
0.17483807 0.007532599 -0.09122832 -0.106433064 -0.1305426 -0.07359954 -0.15826118 0.043091163
0.095675796 0.10920962 -0.32277346 0.15626737 0.26894122 0.08165451 0.19834982 -0.061899763
0.14283517 0.0418214 -0.09864112 -0.28017566 -0.021395873 -0.07087933 0.17664646 -0.39075965
-0.18933159 0.12506674 0.16833684 0.239649 0.024245027 -0.24418691 -0.32082754 -0.075261556
-0.1200469 -0.17208603 -0.021198437 0.033388533 -0.25872174 -0.17770705 -0.025276307 0.17659932
-0.06317243 0.02174387 -0.2470926 0.063010916 0.18906857 -0.061292168 -0.3371129 -0.10214299
0.014485491 0.11981 -0.54617965 0.2809539 0.074486025 0.07582677 -0.022640716 0.085940465
-0.4005791 -0.30267748 -0.06653947 -0.085674636 -0.11766994 -0.03998869 -0.18892735 0.3617435
0.16243705 -0.05666272 0.12731244 -0.16200487 0.02095982 -0.29724786 0.054357085 0.014199327
0.2371857 0.14799215 0.11309263 -0.24801688 0.16267835 0.10450749 0.14173535 -0.15781514
-0.10059247 0.10811128 -0.052916013 0.13957417 -0.11587313 0.02872842 -0.010763364 -0.06641568
0.100370206 -0.040706534 -0.11703338 0.082665294 -0.08514827 0.106159195 -0.008821801 -0.13186568
0.046630714 0.074473545 -0.15065794 -0.24131109 -0.113481686 -0.18129921 -0.07760244 -0.056296334
0.028636074 -0.15657194 0.109678775 0.15502961 0.23495299 0.25372514 0.27965748 0.07364313
-0.11028599 -0.19841084 -0.009955905 -0.10824605 0.28230548 -0.05173584 0.08689967 -0.36978343
0.20132811 0.26715246 0.15665953 0.14912027 -0.31239754 -0.28310326 -0.067003004 0.07547808
0.09453806 -0.029792165 0.188085 0.10851075 -0.04700809 -0.09166695 -0.09001134 -0.16192229
-0.092069946 0.012914706 -0.09808374 -0.29454702 -0.37110367 0.21861027 0.1737065 -0.11430292
-0.15651533 0.04309004 0.08055039 0.024085084 -0.049142156 -0.093072556 0.32302478 0.041984275
-0.09132117 0.011585035 -0.047401994 0.027316691 0.12112411 0.07776556 0.07573974 -0.20223814
-0.12604672 -0.045131315 0.056764606 0.29011554 -0.12352316 0.26508465 -0.14491178 -0.3049305
0.13026622 -0.116877496 -0.048707668 -0.20619796 0.11112047 -0.16288489 0.19207896 0.11235026
00000000: 4626 a43e 6b87 e43d e072 06bf aac9 02bd
00000010: c1bb 27be b603 b43d 1b2c 2ebe 56e1 7cbd
00000020: a51f 423d bbde 153e d713 7bbc b0c9 e63d
00000030: 477b af3d 8597 d4bd 1dca 18be e409 eebc
00000040: c9ae 4fbd 7e5e c1bd e550 53bf 8fff 433d
00000050: 1c5d 843e d993 63be 4380 5d3d c111 463e
00000060: 8bba 45be 0a14 71bd 36d4 093e 2d9b 413c
00000070: 7e01 36be a20a 323e b84c 123e 3d3b 9d3c
00000080: 730a a8be bda0 893e 6a92 eb3c fb31 46bd
00000090: b1e3 97bd 0654 abbe 3e3b 003d 8734 9f3d
000000a0: eecd a0bd 9c58 19bf 2bc3 833e 2f89 1fbd
000000b0: fe83 4b3e 4ce2 7a3e 3e2d 6a3e 13f0 05be
000000c0: 00cb fc3c cf5c 3f3e a4b4 003e 7790 573e
000000d0: d5a0 51be 9bad 283e 4c0d 41be 0f4a c5bd
000000e0: c4ab 513d 34f7 7bbb 2cb5 2c3e 5049 6bbe
000000f0: 1d7f 45be ed08 ae3d 36cb 51be b0a3 2ebd
00000100: e142 67bd d8c4 01be e492 bebd b627 13be
00000110: f5ce bfbd 9e6d a8be f631 683d 8b8b 073e
00000120: 0cdf 80bb ee13 ebbb 973d abbd 4b43 1ebe
00000130: dc9d 13be da68 5a3e 4bda 1d3e 8fed b0bd
00000140: c008 333e 05d4 f63b ead5 babd 94f9 d9bd
00000150: f6ac 05be 5bbb 96bd 380f 22be 5c80 303d
00000160: acf1 c33d 4ba9 df3d 9042 a5be 8e04 203e
00000170: aab2 893e 7b3a a73d 371c 4b3e 9b8a 7dbd
00000180: 6243 123e eb4c 2b3d 5b04 cabd 2f73 8fbe
00000190: 6646 afbc 2f29 91bd cfe2 343e a611 c8be
000001a0: 24e0 41be 7f11 003e 7e60 2c3e 8c66 753e
000001b0: 829d c63c 220c 7abe 8243 a4be bb22 9abd
000001c0: 26db f5bd 5237 30be 58a8 adbc 6ac2 083d
000001d0: 2d77 84be d6f8 35be 4210 cfbc 74d6 343e
000001e0: 8c60 81bd 3320 b23c d805 7dbe de0b 813d
000001f0: 319b 413e 7f0d 7bbd 109a acbe 5830 d1bd
00000200: 8e54 6d3c f25e f53d 6ed2 0bbf 31d9 8f3e
00000210: 218c 983d 114b 9b3d 0679 b9bc 8e01 b03d
00000220: b418 cdbe 8bf8 9abe d845 88bd 2f76 afbd
00000230: f0fc f0bd 2ecb 23bd 2c76 41be 7236 b93e
00000240: e655 263e 2b17 68bd 315e 023e 9be4 25be
00000250: eeb3 ab3c df30 98be 89a5 5e3d 4ba4 683c
00000260: cfe0 723e 418b 173e 1c9d e73d 23f8 7dbe
00000270: 2795 263e 0608 d63d 1223 113e 4b9a 21be
00000280: 6d03 cebd 7269 dd3d 76be 58bd 88ec 0e3e
00000290: e44e edbd dd57 eb3c d258 30bc f204 88bd
000002a0: e58e cd3d e5bb 26bd 32af efbd 6c4c a93d
000002b0: 3762 aebd fe69 d93d 5189 10bc cc07 07be
000002c0: d9ff 3e3d 9685 983d 1346 1abe 411a 77be
000002d0: 1669 e8bd 80a6 39be 07ee 9ebd fc96 66bd
000002e0: 3396 ea3c 6554 20be 449f e03d 15c0 1e3e
000002f0: 8497 703e 43e8 813e 442f 8f3e 36d2 963d
00000300: 9fdd e1bd 362c 4bbe 181e 23bc 1bb0 ddbd
00000310: 588a 903e f6e8 53bd 74f8 b13d 4154 bdbe
00000320: f528 4e3e 35c8 883e 5b6b 203e fcb2 183e
00000330: 92f2 9fbe e9f2 90be df38 89bd 4094 9a3d
00000340: 2c9d c13d b30e f4bc 5b99 403e e23a de3d
00000350: 8e8b 40bd e2bb bbbd de57 b8bd f5ce 25be
00000360: 2b8f bcbd 3498 533c 21e0 c8bd dece 96be
00000370: 4d01 bebe 5fdb 5f3e 1ee0 313e a617 eabd
00000380: 8e45 20be 2f7f 303d 9af7 a43d 154e c53c
00000390: 4949 49bd d39c bebd 8163 a53e b4f7 2b3d
000003a0: 9806 bbbd 29cf 3d3c 9828 42bd 41c7 df3c
000003b0: eb0f f83d 8d43 9f3d 701d 9b3d 8417 4fbe
000003c0: 6412 01be 9ddb 38bd 0182 683d 068a 943e
000003d0: b6f9 fcbd 2db9 873e c163 14be da1f 9cbe
000003e0: 8264 053e 785d efbd b181 47bd 8f25 53be
000003f0: 2193 e33d 4ccb 26be 59b0 443e e517 e63d

unet_model.decoder.0.0.main.bias f4 [32]
-0.25087494 -0.046076868 -0.01992295 -0.0713419 -0.16066216 -0.16872841 -0.15972018 -0.2697079
-0.114002615 -0.16390795 -0.09310239 -0.084096014 -0.19193357 -0.1650134 -0.13814741 -0.03155269
-0.27561748 -0.03640416 -0.26710072 -0.24543068 -0.16682512 -0.023832515 -0.050956614 -0.089779444
-0.06954281 -0.05465371 -0.3052609 -0.12843186 -0.23039554 -0.11663103 -0.104621306 -0.12202077
00000000: ae72 80be 19bb 3cbd 7435 a3bc b41b 92bd
00000010: 9f84 24be 24c7 2cbe b08d 23be 2717 8abe
00000020: 347a e9bd 7cd7 27be 77ac bebd 883a acbd
00000030: 3c8a 44be 46f9 28be 8476 0dbe 653d 01bd
00000040: bc1d 8dbe 871c 15bd 6dc1 88be 2e52 7bbe
00000050: 34d4 2abe 683c c3bc e2b7 50bd 49de b7bd
00000060: 766c 8ebd 92dc 5fbd 284b 9cbe a483 03be
00000070: cfec 6bbe 40dc eebd b243 d6bd 07e6 f9bd

unet_model.decoder.1.0.main.weight f4 [32, 64, 3, 3]
0.17135869 -0.053972796 0.09989008 0.04686346 0.09708687 0.25450507 0.017851982 0.21286489
0.036222808 -0.036808167 -0.088894755 0.032666955 0.017077826 0.17950009 -0.034467436 0.20047265
-0.026113309 -0.00042428056 0.2682548 0.010624302 0.07509469 -0.38643876 -0.21176213 -0.08799256
-0.058171634 -0.03419033 -0.047424138 -0.36412093 -0.22539227 -0.11025644 -0.093330905 -0.14101608
0.11089353 0.26493266 -0.11169441 0.07283414 0.36842838 -0.11076111 0.03481912 -0.49178782
-0.271357 0.07383086 0.036006738 0.023160996 -0.03202844 -0.2472226 0.19795245 0.027011024
-0.15954222 -0.21388608 0.027171304 0.043283127 -0.18205899 -0.03826412 0.012372227 0.13130914
0.08719222 -0.11817224 0.23252103 0.15424675 0.20161462 -0.19435342 0.015037021 -0.17464957
0.08116364 -0.14948517 0.100693785 -0.16307463 0.23175052 0.11448953 -0.25965595 -0.25815356
-0.23318124 -0.09629931 -0.2255568 -0.057622284 0.105042435 0.20275955 -0.18085955 0.032583147
-0.113033384 0.10144037 0.18782412 0.15444134 0.02386474 0.14660099 -0.15972304 0.15310828
-0.33026618 -0.25715446 -0.16819096 -0.06973879 -0.17107178 0.08389793 0.1916376 -0.0016623912
-0.05019614 -0.25310478 -0.067230836 -0.044830006 0.20202027 -0.1595336 0.12474482 0.013670851
-0.04924495 0.0019079096 0.034584578 -0.04490123 0.08515336 -0.22759426 0.060829233 -0.08894734
-0.14203072 0.12151999 0.03302691 0.20586355 -0.032526013 -0.19261159 0.044841424 0.17625226
0.011129133 0.09748903 -0.1819032 0.24449253 -0.3259335 0.2741651 0.10057894 0.21030289
0.26529887 -0.242948 -0.301899 -0.16941047 0.16334021 -0.08398258 0.06441074 -0.24022754
-0.07231754 0.034020722 0.28230995 -0.22800897 -0.14693086 0.15222727 0.049967833 0.050878424
-0.15380995 0.040748138 0.1735516 0.07843567 -0.027694238 0.2125404 -0.16684675 0.062851995
0.13037713 0.032777235 0.16047825 -0.14881153 0.05566739 0.28640416 -0.15606172 0.058324646
0.10863804 -0.12308335 0.14759465 -0.07006461 -0.32802472 -0.0011019538 0.075151786 0.104322396
0.021970801 0.03706197 -0.108256586 0.1899277 0.08770592 0.07924062 -0.096150674 -0.046897545
0.25792065 0.1658968 0.26765144 -0.09207066 -0.31125146 -0.09461571 0.15554775 0.19125094
0.28475127 -0.15553163 -0.040622488 -0.025700662 0.14294057 0.011624105 0.14242609 -0.4521712
-0.27144894 0.06896009 0.3439097 0.08069641 0.10509048 -0.4349829 -0.31824452 0.23230855
-0.29860857 -0.03001146 0.15351258 0.13475245 0.041996177 0.005850679 0.16326648 -0.29846
-0.17987631 0.2527971 0.17215966 0.15001523 0.13236772 -0.059262007 -0.049514573 -0.009501165
-0.10196754 -0.1696268 -0.13394786 -0.28609487 -0.22604339 -0.035479553 -0.052984904 0.14225347
0.03230285 0.088847175 0.10826082 -0.0028736594 -0.16389826 -0.23306926 -0.06843885 0.09358088
-0.1059235 -0.10132261 0.39525396 -0.05597896 0.043950506 -0.22898912 -0.2910861 0.4545186
-0.07316934 0.091519885 0.045255836 0.24318352 -0.25634757 0.3976117 -0.08330459 -0.4305991
0.051639877 0.010964243 0.20605937 -0.004937751 0.004378339 0.28027087 -0.24184349 0.02136263
00000000: a778 2f3e 9412 5dbd 2c93 cc3d e6f3 3f3d
00000010: 7bd5 c63d 7d4e 823e 523e 923c 41f9 593e
00000020: 5e5e 143d 29c4 16bd 740e b6bd c9cd 053d
00000030: cce6 8b3c dfce 373e ba2d 0dbd b448 4d3e
00000040: 94eb d5bc f971 deb9 b158 893e 8d11 2e3c
00000050: 3fcb 993d 4ddb c5be 2cd8 58be 7135 b4bd
00000060: 6145 6ebd 290b 0cbd d03f 42bd 0f6e babe
00000070: 3bcd 66be 21ce e1bd 4624 bfbd 8566 10be
00000080: 261c e33d 41a5 873e 0ac0 e4bd 112a 953d
00000090: a5a2 bc3e b9d6 e2bd 7e9e 0e3d 9dcb fbbe
000000a0: 4eef 8abe a234 973d cd7b 133d 21bc bd3c
000000b0: 4130 03bd ec27 7dbe 0cb4 4a3e 3946 dd3c
000000c0: 095f 23be f404 5bbe 5b96 de3c a649 313d
000000d0: ac6d 3abe d7ba 1cbd e2b4 4a3c e775 063e
000000e0: d691 b23d 4a04 f2bd fe19 6e3e dcf2 1d3e
000000f0: 1074 4e3e 9504 47be d65d 763c 56d7 32be
00000100: 1f39 a63d a412 19be 8b38 ce3d 09fd 26be
00000110: 0250 6d3e 7d79 ea3d a0f1 84be b42c 84be
00000120: 10c7 6ebe 9338 c5bd 5df8 66be 5805 6cbd
00000130: 7d20 d73d 33a0 4f3e 3f33 39be e875 053d
00000140: 0c7e e7bd f8bf cf3d f754 403e df25 1e3e
00000150: fd7f c33c 921e 163e 708e 23be 6bc8 1c3e
00000160: a618 a9be c0a9 83be 403a 2cbe 36d3 8ebd
00000170: 712d 2fbe aed2 ab3d a63c 443e 98e4 d9ba
00000180: 789a 4dbd f396 81be 52b0 89bd ab9f 37bd
00000190: 67de 4e3e c75c 23be 367a ff3d b4fb 5f3c
000001a0: 13b5 49bd d312 fa3a 8fa8 0d3d 5aea 37bd
000001b0: e364 ae3d 780e 69be 1328 793d 062a b6bd
000001c0: 8070 11be 79df f83d 3a47 073d e5cd 523e
000001d0: ff39 05bd f93b 45be a4ab 373d 797b 343e
000001e0: f856 363c 54a8 c73d d544 3abe 405c 7a3e
000001f0: c1e0 a6be 5e5f 8c3e 55fc cd3d a459 573e
00000200: 41d5 873e 5cc7 78be 8192 9abe f079 2dbe
00000210: a842 273e 0fff abbd c7e9 833d 35fe 75be
00000220: 381b 94bd 5059 0b3d ee8a 903e 2f7b 69be
00000230: 0b75 16be 77e1 1b3e 12ab 4c3d e565 503d
00000240: 5b80 1dbe 85e7 263d 83b7 313e e1a2 a03d
00000250: 07df e2bc 31a4 593e e0d9 2abe 8cb8 803d
00000260: 9581 053e 6c41 063d 6954 243e 0d62 18be
00000270: 7d03 643d 91a3 923e a5ce 1fbe d3e5 6e3d
00000280: 9f7d de3d 2013 fcbd 0d23 173e 097e 8fbd
00000290: dbf2 a7be 6f6f 90ba 2ee9 993d fba6 d53d
000002a0: 1cfc b33c 4bce 173d a1b5 ddbd 687c 423e
000002b0: 299f b33d e848 a23d a5ea c4bd a417 40bd
000002c0: 2d0e 843e dae0 293e 9c09 893e 8b8f bcbd
000002d0: 5a5c 9fbe e2c5 c1bd e947 1f3e 49d7 433e
000002e0: ebca 913e af43 1fbe c463 26bd 328a d2bc
000002f0: 035f 123e 0873 3e3c 25d8 113e fc82 e7be
00000300: 5bfb 8abe f33a 8d3d ef14 b03e 2944 a53d
00000310: ad39 d73d 14b6 debe f2f0 a2be 4be2 6d3e
00000320: 39e3 98be 98da f5bc 6732 1d3e 8cfc 093e
00000330: 2f04 2c3d 0db7 bf3b 542f 273e c0cf 98be
00000340: 7f31 38be 9f6e 813e 9f4a 303e 989d 193e
00000350: 678b 073e b8bc 72bd cbcf 4abd c6aa 1bbc
00000360: 5cd4 d0bd a6b2 2dbe a129 09be 077b 92be
00000370: eb77 67be 0253 11bd b306 59bd e5aa 113e
00000380: fe4f 043d 82f5 b53d d9b7 dd3d 0154 3cbb
00000390: f2d4 27be b5a9 6ebe ab29 8cbd 55a7 bf3d
000003a0: 6cee d8bd 3b82 cfbd ba5e ca3e 324a 65bd
000003b0: 7205 343d 207c 6abe 3d09 95be a9b6 e83e
000003c0: cfd9 95bd c76e bb3d 2f5e 393d 1a05 793e
000003d0: fd3f 83be c393 cb3e 999b aabd 7c77 dcbe
000003e0: 5684 533d 5ea3 333c 3a01 533e dccc a1bb
000003f0: 2b78 8f3b aa7f 8f3e d2a5 77be af00 af3c

unet_model.decoder.1.0.main.bias f4 [32]
-0.12238752 -0.046179637 -0.18830667 -0.39089593 -0.12296732 -0.30188924 -0.17391078 0.048936974
-0.22011131 -0.2926924 -0.07868038 -0.009511062 -0.014818389 -0.14924267 -0.16839309 -0.23290691
-0.3973569 -0.013749639 -0.3918409 -0.3246368 -0.065105334 -0.2937519 -0.2874481 -0.06904957
-0.092251115 -0.11503828 -0.1215097 -0.046208743 0.03897986 -0.0427195 -0.22698297 -0.0044604107
00000000: 4fa6 fabd dc26 3dbd 77d3 40be 8323 c8be
00000010: 4ad6 fbbd 3a91 9abe ab15 32be 2372 483d
00000020: dc64 61be c7db 95be 2e23 a1bd 49d4 1bbc
00000030: d4c8 72bc 12d3 18be 3d6f 2cbe 267f 6ebe
00000040: 5d72 cbbe 2a46 61bc 5f9f c8be cb36 a6be
00000050: f255 85bd a666 96be 662c 93be dc69 8dbd
00000060: 27ee bcbd 3199 ebbd 14da f8bd 6145 3dbd
00000070: 58a9 1f3d a4fa 2ebd 396e 68be a328 92bb

unet_model.decoder.2.0.main.weight f4 [32, 64, 3, 3]
0.046682477 -0.15010333 0.057745654 0.07253914 -0.016553791 -0.06434132 0.01356354 -0.07004714
0.039934065 0.15168816 -0.13757451 -0.008876344 -0.09618718 0.09702877 -0.12912074 0.056084793
-0.030003466 0.0848844 0.017528191 0.05297238 -0.029932585 -0.08349987 0.08380355 0.06277288
0.09650467 -0.08165918 -0.015644288 -0.015856367 -0.14884937 0.08148606 -0.0035896294 -0.008961941
-0.020739185 0.06381718 0.1322089 0.020307552 -0.024530618 -0.007531189 -0.16660842 0.055461235
0.06691155 0.065198414 -0.078374155 -0.022067938 -0.002362822 -0.038500365 0.085036375 -0.076513335
0.22280538 -0.0658031 0.035832033 -0.18829961 0.09191769 -0.058619775 -0.042155102 0.037640564
-0.042885877 -0.00805166 -0.04294076 -0.009942582 0.0618062 0.057284664 -0.03154156 -0.08497847
-0.0004134637 0.07126105 0.06849868 0.0643052 0.06916312 -0.15395156 0.00850795 -0.05625642
0.043069564 0.1421826 -0.04737547 -0.11234652 0.042245388 -0.14833564 0.05310133 0.039389092
0.10078506 -0.023342926 0.16628824 -0.16944134 0.056619342 -0.10360895 0.00657947 0.0467117
-0.046472896 0.1057547 -0.009172535 -0.13205418 0.10165331 -0.0016214716 0.062732816 0.028805813
-0.051276263 0.0054580024 -0.017201098 0.020854177 0.051250003 -0.009025973 -0.063541874 0.036476444
-0.014672143 0.00089607015 -0.018353825 -0.015243576 -0.043261044 0.061484758 -0.09092224 -0.041682743
-0.024036039 0.04813498 -0.06723613 0.06525101 -0.035940815 0.087687604 0.030314308 -0.08872554
-0.04523334 -0.019181535 0.052184187 0.047288038 -0.04893778 0.007054779 -0.073755234 -0.031726968
0.18532075 -0.016280387 0.18961646 -0.11694137 -0.007757377 -0.048866637 0.046834614 -0.05489212
-0.03962617 -0.07472325 0.0017135892 0.056542583 -0.18880254 0.0020395492 -0.078039646 0.12747864
0.08694537 -0.12558733 0.060198084 -0.0343792 0.06796276 0.017779209 0.030800005 0.10684712
-0.06843201 -0.11020448 0.08478557 -0.039342973 0.10158915 -0.11714568 -0.0033324542 -0.075118154
0.19817033 -0.07759732 -0.08029827 0.027571669 0.0390049 -0.06898625 0.080756284 -0.073367245
-0.065234944 -0.03488356 -0.042535473 -0.18415697 0.24808562 0.06411111 -0.23308021 0.16823868
0.005800055 0.040622424 -0.041420348 0.009450578 -0.08219749 -0.0030285106 0.027900666 0.01680033
0.13706103 -0.0774301 0.061363894 -0.11129403 0.04513135 -0.050084826 0.0034356462 0.053832434
0.009802597 -0.04786897 0.032384343 0.020706683 -0.11717777 -0.028574673 0.07591996 -0.022757277
-0.05247739 0.1394483 -0.012878911 -0.07090632 -0.023161778 0.0048401123 0.03338358 0.03715085
-0.017321153 0.017069168 -0.0070101703 0.013437328 0.03238737 -0.053392 -0.016486257 0.04125012
-0.086319 0.0083116535 -0.03819858 -0.062021274 0.027353236 -0.028883101 0.03419069 -0.0181821
0.021727486 0.104803585 -0.13612984 -0.03027594 -0.05827752 0.04139903 0.0853923 -0.0108993435
-0.033738967 -0.0015162423 0.0074707055 0.042604838 0.10179971 -0.009813118 0.067146026 0.022721216
-0.107659265 0.0830965 -0.06640321 -0.06200674 -0.0115276165 0.047247678 0.0030118902 -0.011797405
0.013130374 0.009846505 -0.037163485 -0.015121174 -0.006787334 0.00065706804 -0.06695847 0.059228674
00000000: 2036 3f3d b0b4 19be b586 6c3d 678f 943d
00000010: d19b 87bc 62c5 83bd 9c39 5e3c e074 8fbd
00000020: e791 233d 2454 1b3e 55e0 0cbe 166e 11bc
00000030: c9fd c4bd 05b7 c63d 3a38 04be 2bb9 653d
00000040: d4c9 f5bc dfd7 ad3d 4897 8f3c 91f9 583d
00000050: 2e35 f5bc fb01 abbd 32a1 ab3d 118f 803d
00000060: 3ea4 c53d ee3c a7bd 7328 80bc 36e5 81bc
00000070: f86b 18be 2ae2 a63d fd3f 6bbb 1bd5 12bc
00000080: 39e5 a9bc 95b2 823d c561 073e 065c a63c
00000090: 6ff4 c8bc 31c8 f6bb 669b 2abe 522b 633d
000000a0: ec08 893d bf86 853d a182 a0bd d2c7 b4bc
000000b0: 93d9 1abb 8fb2 1dbd 8d27 ae3d 06b3 9cbd
000000c0: 1827 643e c7c3 86bd 9cc4 123d 9dd1 40be
000000d0: 583f bc3d 4a1b 70bd d4aa 2cbd fe2c 1a3d
000000e0: 1aa9 2fbd 1ceb 03bc a6e2 2fbd 36e6 22bc
000000f0: 7f28 7d3d 53a3 6a3d b931 01bd 3109 aebd
00000100: 29c6 d8b9 50f1 913d 0949 8c3d 72b2 833d
00000110: 65a5 8d3d 7aa5 1dbe ee64 0b3c 226d 66bd
00000120: b669 303d 5198 113e c80c 42bd ef15 e6bd
00000130: 8009 2d3d 4ce5 17be c880 593d 7556 213d
00000140: 6668 ce3d aa39 bfbc 7747 2a3e 0882 2dbe
00000150: afe9 673d ee30 d4bd 9898 d73b c454 3f3d
00000160: 5d5a 3ebd ec95 d83d 6648 16bc 3639 07be
00000170: 9c2f d03d 8f87 d4ba 107a 803d 2bfa eb3c
00000180: 0f07 52bd 0bd9 b23b 51e9 8cbc 61d6 aa3c
00000190: 86eb 513d ade1 13bc 3e22 82bd 5368 153d
000001a0: 6e63 70bc 40e6 6a3a c35a 96bc 31c0 79bc
000001b0: 7e32 31bd 71d7 7b3d 7035 babd 86bb 2abd
000001c0: 3ae7 c4bc 2f29 453d 19b3 89bd 52a2 853d
000001d0: ad36 13bd 8f95 b33d b655 f83c bcb5 b5bd
000001e0: 9846 39bd 9822 9dbc 16bf 553d 1ab1 413d
000001f0: fb72 48bd c72b e73b fc0c 97bd 23f4 01bd
00000200: b9c4 3d3e 725e 85bc d12a 423e f57e efbd
00000210: 9831 febb 6228 48bd a7d5 3f3d 8fd6 60bd
00000220: 0d4f 22bd 8108 99bd 839a e03a 3299 673d
00000230: 7455 41be f5a9 053b 40d3 9fbd c389 023e
00000240: 6a10 b23d f799 00be 4492 763d 34d1 0cbd
00000250: 0f30 8b3d b4a5 913c 4b50 fc3c aad2 da3d
00000260: 1526 8cbd e3b2 e1bd 0fa4 ad3d 1926 21bd
00000270: f90d d03d 13ea efbd 4e65 5abb 8cd7 99bd
00000280: 2aed 4a3e 58eb 9ebd 6b73 a4bd fbdd e13c
00000290: 9ac3 1f3d aa48 8dbd 8d63 a53d 9141 96bd
000002a0: e699 85bd 10e2 0ebd ad39 2ebd a593 3cbe
000002b0: 280a 7e3e b04c 833d 94ac 6ebe c346 2c3e
000002c0: 630e be3b b363 263d 62a8 29bd 99d6 1a3c
000002d0: 2857 a8bd fa79 46bb f08f e43c d8a0 893c
000002e0: ba59 0c3e ac93 9ebd b558 7b3d 20ee e3bd
000002f0: a7db 383d bf25 4dbd 9428 613b 667f 5c3d
00000300: 129b 203c 4112 44bd 72a5 043d 10a1 a93c
00000310: e6fa efbd 6f15 eabc ed7b 9b3d 786d babc
00000320: 88f2 56bd 89cb 0e3e 1102 53bc 5537 91bd
00000330: c5bd bdbc ce99 9e3b 39bd 083d 7d2b 183d
00000340: 17e5 8dbc a4d4 8b3c 92b5 e5bb 3d28 5c3c
00000350: 9ea8 043d 92b1 5abd 300e 87bc e3f5 283d
00000360: 04c8 b0bd 9a2d 083c 1d76 1cbd 050a 7ebd
00000370: e513 e03c 419c ecbc 890b 0c3d a1f2 94bc
00000380: d7fd b13c 43a3 d63d 9f65 0bbe 4005 f8bc
00000390: 69b4 6ebd 0792 293d 28e2 ae3d 2993 32bc
000003a0: df31 0abd a6bc c6ba d2cc f43b 6982 2e3d
000003b0: 5e7c d03d 33c7 20bc db83 893d d821 ba3c
000003c0: 767c dcbd 7f2e aa3d 68fe 87bd c8fa 7dbd
000003d0: 54de 3cbc c886 413d 2263 453b e749 41bc
000003e0: c820 573c 3c53 213c bd38 18bd cdbe 77bc
000003f0: 4968 debb 173f 2c3a 8621 89bd c499 723d

unet_model.decoder.2.0.main.bias f4 [32]
-0.14548829 -0.085033566 -0.21734919 -0.24681465 -0.30149373 -0.12738656 -0.15389602 -0.30122435
-0.23238838 0.06615859 -0.103764154 -0.2473473 -0.1075293 -0.16504706 -0.44332072 -0.12981659
-0.0716882 -0.27696848 0.117364734 -0.13116649 -0.24690114 -0.132099 0.09060863 -0.07070069
-0.11025327 -0.19368371 -0.26414365 -0.045772944 -0.22869954 -0.17858826 -0.20500436 -0.039298814
00000000: e2fa 14be 1426 aebd c990 5ebe fbbc 7cbe
00000010: 635d 9abe 9f71 02be eb96 1dbe 143a 9abe
00000020: 38f7 6dbe 287e 873d 4d82 d4bd 9c48 7dbe
00000030: 5238 dcbd 1902 29be effa e2be a4ee 04be
00000040: 43d1 92bd d0ce 8dbe ec5c f03d 8250 06be
00000050: a7d3 7cbe f644 07be 0491 b93d 86cb 90bd
00000060: 77cc e1bd 0655 46be d63d 87be 697c 3bbd
00000070: 3630 6abe d7df 36be aaec 51be cbf7 20bd
